models/kaal_policy.pth (torch, 144903 bytes, 11 tensors)

feature.0.weight f4 [128, 10]
0	0xbda5cbdb	-0.08095523
1	0x3df86a6c	0.12129673
2	0x3e0e9ba8	0.13926566
3	0xbccf69cb	-0.025319
4	0xbe6082fb	-0.21924965
5	0x3e71e260	0.23621511
6	0xbde2bc47	-0.11071067
7	0xbe9a0057	-0.30078384
8	0x3e23dd9b	0.16002505
9	0xbdc1197b	-0.09428688
10	0x3e9825cc	0.29716337
11	0x3f171ab0	0.59025097
12	0x3ccc669d	0.024951274
13	0xbc794aaf	-0.01521556
14	0x3e378118	0.17920339
15	0xbc1c0a58	-0.0095239505
16	0x3bb8122e	0.0056174016
17	0x3c274e4c	0.0102115385
18	0x3c80b729	0.015712338
19	0x3e023c0a	0.12718216
20	0x3ed07fb7	0.4072244
21	0x3ee2e33b	0.44313988
22	0xbdb57337	-0.08859866
23	0xbdfa65e6	-0.12226467
24	0xbd45dfb3	-0.04830904
25	0x3d631341	0.055438284
26	0xbd870c40	-0.065941334
27	0xbcb500cb	-0.022095105
28	0xbe7b2d7a	-0.24529067
29	0x3e292d60	0.16521215
30	0xbe4da789	-0.20083441
31	0xbd6fd957	-0.05855688
32	0x3e9a1207	0.3009188
33	0x3e642407	0.22279368
34	0x3e4f1aeb	0.20225112
35	0x3e71f53d	0.23628707
36	0xbe1553b0	-0.14582705
37	0xbe2650c5	-0.16241749
38	0xbe6082d1	-0.21924902
39	0x3ab241b5	0.0013599904
40	0x3e0e350a	0.1388742
41	0xbeb2d4b2	-0.349279
42	0xbe9661f1	-0.29371598
43	0xbe811f29	-0.25219086
44	0x3e1ef457	0.15522896
45	0x3deafd0f	0.11474048
46	0x3e5649fb	0.20926659
47	0x3e5d7544	0.21626765
48	0xbd1ade07	-0.037809398
49	0x3e8fb618	0.28068614
50	0x3f24dcfa	0.64399683
51	0x3f04da0c	0.51895213
52	0xbbe9d0a2	-0.0071354667
53	0xba7d5991	-0.00096645305
54	0xbdd947a9	-0.10609371
55	0xbb05f4ec	-0.0020440174
56	0x3c1dcf22	0.009631904
57	0x3c829cd2	0.015943918
58	0x3bf10d15	0.007356296
59	0xbce5c4fd	-0.028048033
60	0x3e8491c3	0.25892457
61	0xbe204166	-0.15649948
62	0xbc0334a9	-0.008008161
63	0xbe9e5d93	-0.30930766
64	0xbca5de71	-0.02024767
65	0xbdb55fb0	-0.088561416
66	0xbd18f51d	-0.037343133
67	0x3e41029f	0.18848656
68	0xbd7c88da	-0.06165395
69	0xbe21ca63	-0.1579986
70	0xbeda7050	-0.42663813
71	0x3f007a51	0.5018664
72	0x3daa97af	0.083297126
73	0xbeabb014	-0.33532774
74	0xbe17f618	-0.14839971
75	0xbb69a16e	-0.0035649198
76	0xbcf9ce42	-0.03049386
77	0xbe7d42b2	-0.24732473
78	0xbc613c55	-0.013747294
79	0xbdddfd6d	-0.10839353
80	0xbd546bcb	-0.051860612
81	0xbe368f39	-0.17828073
82	0xbe65c880	-0.22439766
83	0x3e201029	0.15631165
84	0x3ddc094c	0.10743961
85	0xbe165a35	-0.14682849
86	0xbdd5f9c4	-0.1044803
87	0x3de6fe8d	0.112790205
88	0xbe0b3473	-0.13594227
89	0xbe99c984	-0.30036557
90	0x3e433a44	0.19065195
91	0xbf11970d	-0.5687111
92	0xbd9b2a78	-0.0757646
93	0xbe6532bc	-0.22382635
94	0xbe92f44c	-0.2870201
95	0xbc2c1137	-0.010502151
96	0x3c3d94f2	0.011571156
97	0xbe618605	-0.2202378
98	0x3d9c743a	0.07639356
99	0xbdeced4f	-0.115687005
100	0xbeef43ea	-0.46731502
101	0x3db503bf	0.08838605
102	0x3e0073e1	0.12544204
103	0x3e612b67	0.21989213
104	0xbe26cb31	-0.16288449
105	0xbe2cc111	-0.16870524
106	0xbcc04303	-0.023469454
107	0xbc945078	-0.018104777
108	0xbe162bab	-0.14665096
109	0x3e64460e	0.22292349
110	0xbdca4c1c	-0.09877798
111	0x3f4c6eb6	0.7985643
112	0x3bec6621	0.007214323
113	0x3d17a05c	0.037018165
114	0x3c98cc5e	0.018652137
115	0xbc960723	-0.01831395
116	0xbbfc1e5f	-0.00769405
117	0x3df87acb	0.12132796
118	0x3c5117be	0.012762008
119	0xbd9584e8	-0.073007405
120	0x3f8b8f33	1.0903076
121	0xbee10ab4	-0.43953478
122	0x3c347c0a	0.011015901
123	0x3c0a4b3b	0.008440788
124	0xbb993fab	-0.0046767793
125	0xbba36418	-0.0049862973
126	0x3b20b4d1	0.0024521837
127	0xbbebb64d	-0.007193363
128	0xbb490693	-0.0030674085
129	0xbbf52858	-0.007481616
130	0x3e9ac217	0.30226204
131	0x3b2b6d91	0.0026157836
132	0x3e02e930	0.12784266
133	0xbe5f2fbc	-0.21795553
134	0x3e71e701	0.23623277
135	0xbe7b0b9f	-0.24516152
136	0x3d80e9fa	0.062946275
137	0x3e46aae6	0.1940113
138	0xbdc7f562	-0.097636
139	0x3d67e265	0.05661239
140	0x3cb342be	0.021882411
141	0xbf41113b	-0.75416917
142	0xbd76544c	-0.060138986
143	0xbda020d4	-0.078187615
144	0xbcb0ddbb	-0.021590104
145	0xbd2428de	-0.040078036
146	0xbccc3904	-0.02492953
147	0x3baf0091	0.0053406437
148	0xbe76229d	-0.24036641
149	0x3e7b0174	0.24512273
150	0x3ba9559d	0.0051676766
151	0x3d552d01	0.052044872
152	0xbe03f90b	-0.12887971
153	0x3e005c7d	0.12535281
154	0xbdd33a55	-0.1031386
155	0xbc6e4aee	-0.014544232
156	0x3c000398	0.007813357
157	0x3cecff30	0.028930277
158	0xbdb30146	-0.08740477
159	0x3c9b9689	0.01899268
160	0xbcf4074c	-0.029788636
161	0x3e8c4f09	0.2740405
162	0xbd46a91d	-0.048501123
163	0xbee75cb2	-0.45187908
164	0x3d93e6ea	0.07221778
165	0xbe874876	-0.2642247
166	0xbe6956b3	-0.2278698
167	0xbdc51389	-0.09622867
168	0xbe90fb80	-0.2831688
169	0xbd794a8e	-0.060862117
170	0x3e868caa	0.26279193
171	0xbe8ad918	-0.27118754
172	0x3d847769	0.06468088
173	0x3e286490	0.16444612
174	0xbd9fca40	-0.07802248
175	0x3aaf6cdf	0.0013383887
176	0xbe10ba45	-0.14133556
177	0x3d298a4c	0.041391656
178	0xbd4d47f4	-0.050117448
179	0xbe6fdf68	-0.23425066
180	0x3d8ca573	0.068674944
181	0xbee3d08e	-0.44495052
182	0xbd7f1e0e	-0.06228452
183	0xbd9f535a	-0.0777957
184	0xbc523312	-0.012829559
185	0x3d7b922c	0.061418697
186	0xbdc51a96	-0.096242115
187	0xbc8c62d7	-0.017136974
188	0xbd7c2ec4	-0.061568037
189	0xbe4a2100	-0.19739151
190	0x3e0e9bd2	0.13926628
191	0x3ea71620	0.32634068
192	0x3cd86a73	0.026417946
193	0xbcbc65d7	-0.02299778
194	0xbe350b47	-0.17680083
195	0xbe180ff0	-0.1484983
196	0xbe8d1f91	-0.27563146
197	0x3e112969	0.14175953
198	0x3e7b4fd6	0.24542174
199	0x3e106be6	0.1410366
200	0xbd56b33d	-0.05241703
201	0xbe67f13b	-0.22650616
202	0xbd2d2dfb	-0.04228018
203	0x3d992087	0.07476907
204	0xbe202b8c	-0.15641612
205	0x3da31806	0.079635665
206	0x3d75da13	0.060022425
207	0xbe6847cd	-0.2268364
208	0x3e695c81	0.22789194
209	0x3e1cdd36	0.1531876
210	0x3e94ce32	0.29063565
211	0xbe635cdd	-0.22203393
212	0xbe85b7d3	-0.2611681
213	0xbe0dcaa3	-0.13846831
214	0x3e66c3ff	0.22535704
215	0x3c871baf	0.016492693
216	0xbc5c2605	-0.013436799
217	0x3e8c0838	0.2735002
218	0xbd1f47e4	-0.03888692
219	0xbe87bcb3	-0.26511154
220	0xbe3c80a2	-0.18408445
221	0x3da1f4e1	0.07908035
222	0xbdfa5c97	-0.12224691
223	0x3d8ff200	0.0702858
224	0x3e83c3b3	0.25735244
225	0xbe2b63a2	-0.16737226
226	0xbe80d316	-0.25161046
227	0xbe2d6635	-0.1693352
228	0xbe76dc4a	-0.24107471
229	0x3e75b0a3	0.23993163
230	0xbdfa8251	-0.12231887
231	0xbf1bec6e	-0.6090764
232	0xba917d68	-0.0011099996
233	0x3ddcd87b	0.10783478
234	0x3e9dc69a	0.30815583
235	0x3dbaef50	0.091276765
236	0xbd8030a7	-0.0625928
237	0xbe6f63d6	-0.23377928
238	0x3d98a73c	0.074537724
239	0xbe259652	-0.16170624
240	0x3e223168	0.1583916
241	0xbf012bf6	-0.50457704
242	0x3db8d068	0.09024125
243	0xb985da05	-0.00025530174
244	0xbe3c63ff	-0.1839752
245	0xbe1d5441	-0.15364172
246	0x3d740e7d	0.05958413
247	0x3e125c34	0.14292985
248	0xbcf18a39	-0.029484855
249	0xbe583753	-0.21114855
250	0xbf718e1a	-0.94357455
251	0x3e2f2724	0.17104775
252	0xbd0d0fd0	-0.034438908
253	0x3dd29421	0.102821596
254	0xbd196f6c	-0.037459776
255	0x3d9c2d6e	0.076258525

feature.0.bias f4 [128]
0	0x3ed80353	0.42190036
1	0xbe931502	-0.28726965
2	0x3e8ae536	0.27128
3	0x3f1c2fd6	0.6101049
4	0x3edf46b4	0.4360863
5	0xbefa70d9	-0.4891422
6	0x3eab5426	0.33462638
7	0x3d189376	0.037250005
8	0xbac88c36	-0.0015300575
9	0x3e90befd	0.28270712
10	0x3ed71713	0.42009792
11	0xbe91dfa2	-0.2849093
12	0xbed1a8eb	-0.40949187
13	0x3eff212e	0.49830002
14	0xbdaa38cb	-0.08311614
15	0x3ec50851	0.38482907
16	0xbe2eead5	-0.17081769
17	0x3e56f8fb	0.20993416
18	0x3e397544	0.1811114
19	0x3ebe5a55	0.37178293
20	0x3f0875d4	0.5330479
21	0x3f042875	0.5162423
22	0xbe72f017	-0.237244
23	0xbe09b98f	-0.13449691
24	0x3e9218d5	0.2853457
25	0x3e3b4859	0.18289317
26	0xbe85aee1	-0.26109985
27	0x3ec492e1	0.3839331
28	0x3e9e9fce	0.30981296
29	0xbc681612	-0.014165418
30	0x3e15c0d6	0.14624342
31	0x3eb3576a	0.3502763
32	0xbddae41a	-0.10688038
33	0xbd676087	-0.05648854
34	0xbe91e9f6	-0.2849881
35	0x3e6be03f	0.23034762
36	0xbe8d3024	-0.2757579
37	0x3eb02386	0.34402102
38	0x3ed2fe1d	0.41209498
39	0x3ed6c6d5	0.41948572
40	0xbed86f56	-0.42272443
41	0xbd39fc33	-0.04540653
42	0xbe452950	-0.1925404
43	0xbe452ff6	-0.19256577
44	0xbe3eeef4	-0.18645841
45	0x3f04ecce	0.51923835
46	0xbeddc240	-0.43312263
47	0x3f0944e3	0.5362074
48	0xbd463400	-0.048389435
49	0xbe8d57e2	-0.27606112
50	0xbe8b897b	-0.27253327
51	0x3d97cef0	0.07412517
52	0x3f10897b	0.5645978
53	0x3c96bc3f	0.01840031
54	0x3ee9e93f	0.45685765
55	0xbe8c0ea4	-0.2735492
56	0xbdec10ed	-0.11526666
57	0xbe6d0d2f	-0.2314956
58	0xbdd898a2	-0.105759874
59	0xbf27ec35	-0.655948
60	0xbb54fa18	-0.00324977
61	0x3ec4f8a8	0.3847096
62	0x3e37d863	0.17953639
63	0x3e8f2725	0.27959552
64	0xbdd2e1a2	-0.10296942
65	0x3dcf7705	0.10130123
66	0x3effc8ba	0.4995783
67	0xbe261117	-0.16217457
68	0xbe8d534c	-0.27602613
69	0x3d73e1ec	0.059541628
70	0x3ef5329e	0.4789018
71	0x3e946b27	0.28988
72	0xbd6bc0e3	-0.057556998
73	0x3ed1ad95	0.40952745
74	0x3f082309	0.5317846
75	0xbd90e876	-0.070755884
76	0xbe241d60	-0.1602683
77	0xbec58d46	-0.38584346
78	0x3ef0a3bc	0.4699992
79	0x3e70584e	0.23471186
80	0xbe2641c3	-0.16236024
81	0xbe0b4391	-0.13599993
82	0xbc658488	-0.014008649
83	0xbe884397	-0.26614067
84	0xbe8e1fa4	-0.27758515
85	0xbef3867e	-0.47563547
86	0x3f172413	0.5903942
87	0x3f0d796a	0.5526339
88	0x3f13ff7b	0.5781171
89	0xbe9e486f	-0.30914637
90	0xbeb8e912	-0.3611532
91	0xbe8df5dc	-0.27726638
92	0x3eb43952	0.35199982
93	0x3eb6b2cb	0.35683283
94	0xbdcd8886	-0.100358054
95	0x3f1ccf72	0.61254036
96	0x3e4fd1fe	0.2029495
97	0x3db20cb8	0.08693832
98	0xbe8dc693	-0.27690563
99	0xbea87db6	-0.3290841
100	0x3e2c9db3	0.16857032
101	0xbe76d257	-0.24103676
102	0x3eb27038	0.3485124
103	0x3dfe6784	0.12422088
104	0xbee99c47	-0.45627043
105	0x3ec31167	0.38099214
106	0x3ed736a7	0.42033884
107	0x3f0fa37f	0.5610885
108	0x3d036027	0.03207412
109	0x3e7695ca	0.24080577
110	0x3e0f3b29	0.13987412
111	0x3edd9b0f	0.43282363
112	0xbe60c609	-0.21950544
113	0x3ecacc03	0.39608774
114	0x3ee61b8f	0.449429
115	0xbeea8076	-0.45801133
116	0x3e95dd20	0.29270267
117	0xbe2bc68a	-0.16774955
118	0x3e07c975	0.13260444
119	0x3eee0860	0.46490765
120	0x3eb2cd04	0.3492204
121	0x3e3cc405	0.1843415
122	0x3caa2b24	0.020772524
123	0x3da06a9f	0.07832836
124	0x3f19b0e1	0.6003552
125	0xbeab9914	-0.33515227
126	0x3e74dff0	0.2391355
127	0x3e2faf03	0.17156605

feature.2.weight f4 [128, 128]
0	0x3d3fb221	0.046800736
1	0xbf08845f	-0.5332698
2	0xbe71270b	-0.2355005
3	0x3d023c07	0.031795528
4	0xbd69922e	-0.057024173
5	0xbe6ca156	-0.2310842
6	0xbe898ebc	-0.2686671
7	0x3df40028	0.11914092
8	0x3d77caae	0.060496025
9	0xbe2a20f0	-0.16614127
10	0x3e4c72d1	0.19965674
11	0xbd0eb580	-0.03484106
12	0xbe7a0002	-0.24414065
13	0xbda2806f	-0.07934653
14	0xbdac5881	-0.08415318
15	0x3d555d41	0.052090887
16	0x3cd744e6	0.02627797
17	0xbe536a04	-0.2064591
18	0xbe6e513f	-0.2327318
19	0xbd88f9e4	-0.06688288
20	0xbd10d98e	-0.035363726
21	0xbe30e5f5	-0.17275222
22	0x3d02940d	0.031879473
23	0x3da2b3b0	0.07944429
24	0xbde8a1f2	-0.113590136
25	0x3eae338e	0.34023708
26	0xbd1ece98	-0.038771242
27	0x3e000abc	0.12504095
28	0x3d82eeeb	0.06393226
29	0x3dfc04e2	0.12305619
30	0xbef3b778	-0.47600913
31	0x3d639227	0.055559304
32	0xbcf789be	-0.030217048
33	0xbe0ef142	-0.1395922
34	0xbd10db1a	-0.0353652
35	0x3e0f1e00	0.13976288
36	0x3c4f7560	0.012662262
37	0xbd29f8dc	-0.041497096
38	0x3f27b024	0.65503144
39	0xbd846d39	-0.06466145
40	0x3e0940be	0.13403603
41	0x3d90ce5f	0.07070612
42	0xbd92e1e3	-0.07171991
43	0x3da215c3	0.07914307
44	0x3c42555e	0.011861173
45	0x3e2e640d	0.17030354
46	0xbe2d16ea	-0.16903272
47	0xbd23b8ba	-0.03997109
48	0xbd7fdea9	-0.062468205
49	0xbec845a5	-0.39115635
50	0xbd11473b	-0.03546832
51	0xbed1a4e6	-0.4094612
52	0x3e6a3be3	0.22874407
53	0xbc081fa3	-0.008308324
54	0xbe3d1b19	-0.18467368
55	0xbd6d243e	-0.05789589
56	0xbe6f36a7	-0.23360692
57	0xbd90ba28	-0.070667565
58	0xbd8acfe1	-0.06777931
59	0xbeab1baf	-0.33419558
60	0x3d16a35f	0.036776897
61	0xbd978762	-0.07398869
62	0x3ee7ea3e	0.452959
63	0xbe1419b5	-0.14462931
64	0x3d3c0b7d	0.045909394
65	0xbe768f59	-0.2407812
66	0xbdb2167c	-0.08695695
67	0xbe26e4c7	-0.16298209
68	0x3c138c24	0.00900558
69	0xbd29da0a	-0.041467704
70	0xbd47b5b6	-0.048757277
71	0x3e06f8d0	0.13180852
72	0xbf79ea8e	-0.9762353
73	0xbe0490da	-0.12945881
74	0x3e97fd41	0.29685405
75	0x3db0ff43	0.08642437
76	0xbf83da4d	-1.0300995
77	0xbed3df33	-0.41381225
78	0x3ce087d4	0.027408518
79	0xbe4cf3d7	-0.20014893
80	0xbe856584	-0.26054013
81	0xbd6a3cd2	-0.05718691
82	0x3e51fabb	0.20505802
83	0x3e23485a	0.15945569
84	0xbe58a0af	-0.21155046
85	0xbe5a0dde	-0.21294352
86	0x3e7fb4fe	0.24971387
87	0x3d41f50e	0.047352843
88	0x3e071beb	0.13194244
89	0xbd602907	-0.054726627
90	0x3d2b8f38	0.04188463
91	0x3b4217a9	0.0029616153
92	0xbe963f55	-0.29345194
93	0x3e0f06f9	0.13967504
94	0xbd21924f	-0.03944617
95	0x3e74d90a	0.23910919
96	0xbcfe3ed0	-0.03103581
97	0xbd119edc	-0.03555189
98	0xbf02d2ea	-0.5110308
99	0x3daa1935	0.08305589
100	0xbe6450eb	-0.22296493
101	0xbe722380	-0.23646355
102	0x3e35546b	0.17707984
103	0xbe559cb6	-0.20860562
104	0xbee2e742	-0.4431706
105	0x3f31b19b	0.6941163
106	0xbdf0b512	-0.117532864
107	0x3ccb7a34	0.024838544
108	0x3eeb527b	0.45961365
109	0xbe814bc0	-0.25253105
110	0x3bb4d713	0.005518803
111	0x3f0d76b6	0.55259264
112	0xbceaf57e	-0.028681513
113	0xbe01d890	-0.12680268
114	0x3d352709	0.04422668
115	0xbddcc12b	-0.10779031
116	0xbdc35448	-0.0953756
117	0xbddaaf31	-0.10677946
118	0x3e768d69	0.24077381
119	0x3dc06697	0.093945675
120	0xbe0dc938	-0.1384629
121	0xbeb379b4	-0.3505379
122	0xbeec101c	-0.4610604
123	0xbc31a3fb	-0.010842319
124	0x3e24a90b	0.1608011
125	0x3e44cb60	0.19218206
126	0x3f066c7e	0.52509296
127	0xbee64001	-0.44970706
128	0x3e32883c	0.17434782
129	0xbd839d59	-0.06426496
130	0x3ce742ad	0.028230036
131	0x3e2326a9	0.15932716
132	0x3daad725	0.08341817
133	0xbe0dadce	-0.13835832
134	0x3da31fa1	0.07965017
135	0x3e114b36	0.14188847
136	0xbb609cdd	-0.0034273185
137	0x3e098c15	0.13432343
138	0x3e09b89e	0.13449332
139	0x3dcb379e	0.099227175
140	0xbfc4f810	-1.5388203
141	0x3d1e7473	0.038685273
142	0x3e6c1e23	0.23058371
143	0x3e8b6161	0.27222732
144	0x3dba194c	0.09086856
145	0xbe9eb068	-0.30993962
146	0xbd0d0718	-0.034430593
147	0x3e519e43	0.20470528
148	0x3df36e78	0.118863046
149	0x3d076d8a	0.03306345
150	0xbcc79db9	-0.0243672
151	0xbcc8df85	-0.024520645
152	0xbddf4a19	-0.10902805
153	0xbc3f12fa	-0.011662239
154	0x3d2cf3e3	0.042224776
155	0x3e16716b	0.14691703
156	0x3e3eae27	0.18621121
157	0x3d8b50ee	0.068025455
158	0xbe090f71	-0.13384797
159	0x3bcd8b33	0.0062726974
160	0xbcd30679	-0.025759922
161	0x3dca9c56	0.098931
162	0xbd804537	-0.06263202
163	0x3e04e158	0.12976587
164	0x3dadce79	0.08486647
165	0xbb8ad1e7	-0.004236448
166	0x3e018895	0.12649758
167	0x3dd45991	0.10368646
168	0xbda3f202	-0.08005144
169	0x3b1dfe27	0.0024107785
170	0x3d0a80a7	0.0338141
171	0xbd3d127c	-0.046160206
172	0x3e482d7e	0.19548604
173	0x3e8108aa	0.25201923
174	0xbf99e72a	-1.2023671
175	0x3de67750	0.11253226
176	0x3d2d77c8	0.04235056
177	0x3e3bdc54	0.18345767
178	0xbdaec2d4	-0.08533254
179	0xbe9dbf1e	-0.30809873
180	0x3e674ec8	0.22588646
181	0x3dc57348	0.09641129
182	0x3ca9fd29	0.020750599
183	0xbd255649	-0.04036549
184	0xbdb01fa2	-0.085997835
185	0x3ca8d110	0.020607501
186	0x3d9c007d	0.07617281
187	0xbf2072aa	-0.62674963
188	0x3cdce53b	0.026964774
189	0xbe3011fa	-0.17194358
190	0xbbc8741f	-0.0061173583
191	0x3d814e8e	0.06313811
192	0xbc8ec9aa	-0.017430145
193	0x3e8a3718	0.26995158
194	0x3e242739	0.16030587
195	0xbccd8046	-0.02508558
196	0x3ca9659f	0.02067834
197	0x3d34b402	0.04411698
198	0xbd6ace60	-0.05732572
199	0x3e3763d3	0.17909174
200	0xbe764180	-0.24048424
201	0x3d9fb851	0.077988274
202	0x3e86ecb9	0.2635248
203	0x3cc7fbfd	0.02441215
204	0xbe8063ff	-0.2507629
205	0xbe3f78ab	-0.18698375
206	0x3e86509f	0.26233384
207	0x3c0a5bd7	0.008444748
208	0xbe9ccbe4	-0.30624306
209	0x3beed19b	0.0072881705
210	0xbe119099	-0.14215316
211	0x3dbc0b1d	0.09181807
212	0xbe3e8322	-0.1860471
213	0xbfb7edb7	-1.436942
214	0x3e78c8dd	0.24295373
215	0x3cc09fa5	0.023513624
216	0x3e8a107f	0.2696571
217	0x3da5f998	0.08104247
218	0xbe19462a	-0.14968172
219	0xbd8c50ff	-0.06851386
220	0xbdf8707b	-0.12130829
221	0x3e3faddc	0.18718666
222	0x3cbac1d3	0.0227975
223	0x3e6bdc38	0.23033226
224	0x3da1e06f	0.079041354
225	0x3e1a6ee3	0.15081362
226	0xbe5b9e27	-0.21447049
227	0x3e25a1c7	0.16174994
228	0xbcb24d6e	-0.021765437
229	0xbdca0e28	-0.09865981
230	0x3e6c7e3d	0.23095031
231	0x3e4f2966	0.20230636
232	0xbedec2e8	-0.43508077
233	0x3db05492	0.086098805
234	0x3dd02367	0.101630025
235	0x3e20da32	0.15708235
236	0x3e74b277	0.23896204
237	0xbc21952a	-0.009862224
238	0x3de5ab12	0.1121427
239	0xbdc7f344	-0.09763196
240	0xbce5849c	-0.028017335
241	0x3e4f935b	0.20271055
242	0x3d26c617	0.040716257
243	0xbdab04d1	-0.08350528
244	0x3de17cdb	0.110101424
245	0x3d90a2a5	0.07062272
246	0x3e841818	0.25799632
247	0x3e8f1bf9	0.2795103
248	0xbc974d41	-0.018469455
249	0xbddbdfc3	-0.107360385
250	0xbe0d970d	-0.13827153
251	0x3c86c8c6	0.016453158
252	0x3ebd227c	0.36940372
253	0xbdca7e89	-0.09887416
254	0x3df70c85	0.12062935
255	0xbe4fb174	-0.20282537

feature.2.bias f4 [128]
0	0x3c9e36a2	0.01931316
1	0x3e9b39f9	0.30317667
2	0x3ea0db70	0.31417418
3	0xbda297d5	-0.07939116
4	0xbda35fc7	-0.079772525
5	0x3df4daab	0.1195577
6	0x3db5472b	0.08851465
7	0x3e2a052b	0.16603534
8	0xbcb35e6c	-0.02189561
9	0x3c27f84a	0.010252068
10	0x3e12d6b0	0.1433971
11	0x3e875335	0.2643067
12	0xb92dc0cd	-0.0001657039
13	0x3ed1efa9	0.4100316
14	0x3d804455	0.06263033
15	0x3e6dd68e	0.23226377
16	0x3e00ea93	0.12589483
17	0x3ebfb205	0.37440506
18	0xbcbea267	-0.023270799
19	0x3e7b1812	0.24520901
20	0x3e35da4a	0.17759052
21	0xbd518f12	-0.051161833
22	0x3e4a3361	0.19746162
23	0xbdb8ad65	-0.090174474
24	0x3e9b187d	0.3029212
25	0x3eb32f04	0.34996808
26	0x3d033611	0.032033984
27	0x3e628f7f	0.22125052
28	0x3e99fa70	0.3007388
29	0xbdbf5585	-0.093424834
30	0x3da67a6c	0.08128819
31	0x3e59808e	0.21240446
32	0x3d00c253	0.031435322
33	0x3ebec0e4	0.3725654
34	0x3e3f99da	0.18711033
35	0xbd4b7494	-0.049671724
36	0x39087712	0.00013014328
37	0x3ddf7cae	0.10912453
38	0x3e792e38	0.24334037
39	0x3d11840e	0.035526328
40	0xbd06b586	-0.032887958
41	0x3cb7837a	0.02240156
42	0x3e23c8f4	0.15994626
43	0x3dafef29	0.08590538
44	0x3e0f01af	0.13965486
45	0x3e57b6f4	0.21065885
46	0x3e7c821a	0.24659005
47	0x3d2dd304	0.04243757
48	0xbd691c0e	-0.05691152
49	0xbc99f625	-0.018794129
50	0x3c570a72	0.013125049
51	0x3e2b0af4	0.16703397
52	0x3dd68c04	0.104759246
53	0xbd486a00	-0.048929214
54	0x3ea7a0c5	0.32739845
55	0x3de5e5e0	0.11225486
56	0x3ebd1fd2	0.3693834
57	0x3ea068a1	0.31329826
58	0x3e72aa86	0.23697862
59	0x3e6994bd	0.22810645
60	0x3eaab752	0.33342987
61	0x3db59f4f	0.08868276
62	0x3e83b78f	0.25725982
63	0xbd56e5b7	-0.052465167
64	0x3e60de4b	0.21959798
65	0x3da2b7a4	0.07945183
66	0xbcb52683	-0.02211309
67	0x3ee6b3bf	0.4505901
68	0x3e975c23	0.29562482
69	0x3d8f699d	0.07002566
70	0x3e318967	0.17337571
71	0xba49ceb9	-0.00076983456
72	0xbcb11ba6	-0.02161963
73	0x3eeee203	0.46656808
74	0x3da764e2	0.08173539
75	0xbcbb9deb	-0.02290245
76	0x3ec281c3	0.37989625
77	0x3da74b86	0.08168702
78	0x3d78c1ea	0.060731806
79	0x3ea7c959	0.32770804
80	0x3cf5772f	0.029964058
81	0x3d22dd92	0.039762087
82	0x3e962b58	0.29329944
83	0x3d9c4253	0.07629838
84	0xbd7e666f	-0.062109407
85	0x3cdaa731	0.026691051
86	0x3e10737b	0.14106552
87	0xbd9be611	-0.07612241
88	0x3e1504a0	0.14552546
89	0x3d9516e5	0.072797574
90	0x3e485ebf	0.19567393
91	0xbd259781	-0.04042769
92	0x3e179e80	0.14806557
93	0xbd1cff16	-0.038329206
94	0x3cf6ff46	0.03015102
95	0x3e92bdc4	0.28660405
96	0x3d171a4c	0.036890313
97	0x3e0d3533	0.13789825
98	0xbcea4296	-0.028596204
99	0x3c4d1f7b	0.012519713
100	0x3e81ef4f	0.2537789
101	0x3d5260f2	0.051361986
102	0x3e5e054c	0.21681708
103	0x3e480f4c	0.19537085
104	0x3ea57b00	0.32320404
105	0xbd9cc114	-0.07654014
106	0x3ec51696	0.38493794
107	0x3e90d426	0.28286856
108	0x3e2434f4	0.16035825
109	0x3d982745	0.07429365
110	0x3ea319ae	0.3185553
111	0x3caf5c5a	0.021406341
112	0x3ce23ff6	0.02761839
113	0x3db2c725	0.0872939
114	0x3e6fbe8b	0.2341253
115	0xbcfc1f96	-0.03077678
116	0xbdbfdd05	-0.09368328
117	0x3e0bfa93	0.13669805
118	0x3e9627c7	0.29327223
119	0x3de39179	0.11111731
120	0x3deb01a9	0.11474926
121	0x3eb3910b	0.35071597
122	0x3e921219	0.28529432
123	0xbc965395	-0.018350402
124	0x3d422dd7	0.047406998
125	0x3da86d12	0.082239285
126	0xbd21a612	-0.039465018
127	0x3d90fbcf	0.07079279

value_stream.0.weight f4 [64, 128]
0	0x3d1ed6b1	0.038778964
1	0xbc0be79d	-0.008539108
2	0xbd8fcb7c	-0.070212334
3	0xbd6d97d8	-0.058006138
4	0xbdb4c2c9	-0.08826215
5	0xbdb1fdaf	-0.086909644
6	0x3d4b7db3	0.049680423
7	0x3d76b83a	0.060234286
8	0x3c4b6469	0.012414076
9	0xbd949eed	-0.07256875
10	0xbdb59f4c	-0.08868274
11	0xbd0d3999	-0.034478758
12	0x3cece640	0.028918386
13	0xbd820c55	-0.063500084
14	0x3d20d404	0.039264694
15	0xbd033c81	-0.032040123
16	0x3d58107b	0.052750092
17	0x3d8661e4	0.0656164
18	0x3cc94056	0.02456681
19	0x3d448146	0.047974847
20	0x3d85a479	0.06525511
21	0xbcd703d8	-0.02624695
22	0x3d7fe529	0.062474404
23	0xba287c19	-0.00064271834
24	0x3ce5225c	0.027970485
25	0x3d076fdb	0.033065658
26	0xbd14dda4	-0.036344185
27	0xbd4d9568	-0.050191313
28	0x3c9f1f5d	0.019424135
29	0xbd0ff5eb	-0.035146635
30	0xbd84473d	-0.064589
31	0x3c0c3bfd	0.008559224
32	0x3d655e0e	0.0559979
33	0x3d77857a	0.060430028
34	0x3d385b98	0.045009226
35	0xbd921061	-0.0713203
36	0x3d6f3ca3	0.058407437
37	0x3d597042	0.053085573
38	0xbd6fde5c	-0.058561668
39	0x3d20ff0d	0.039305735
40	0x3d074a68	0.033029944
41	0xbd4f2c08	-0.0505791
42	0xbd4d4426	-0.05011382
43	0xbd7f93bd	-0.062396754
44	0xbccc0fc1	-0.024909856
45	0xbd338e50	-0.04383689
46	0xbdbf7cf3	-0.09350004
47	0x3ba9c012	0.0051803673
48	0xbcaedc0b	-0.021345159
49	0x3d8a0629	0.06739456
50	0xbd96f11d	-0.073702075
51	0x3da27116	0.07931726
52	0x3d84de87	0.06487756
53	0x3dacf585	0.08445267
54	0x3b38b99a	0.00281868
55	0x3d6212f1	0.055193845
56	0xbd913618	-0.07090396
57	0xbdbbddbb	-0.09173151
58	0x3d7ab171	0.061204378
59	0xbd39d768	-0.045371443
60	0xbc8a1611	-0.016856225
61	0xbd8fa925	-0.07014684
62	0x3bae5f71	0.005321436
63	0xbd391d75	-0.045194108
64	0xbafae2f8	-0.0019141128
65	0xbd268aca	-0.040659703
66	0xbd05844b	-0.032596868
67	0x3cc9fd8e	0.024657037
68	0xbd8aa687	-0.06770044
69	0xbd3d32c5	-0.046190996
70	0x3da5e1b3	0.08099689
71	0xbce4758e	-0.027888086
72	0x3d8933f1	0.0669936
73	0x3bc666f8	0.0060547553
74	0xbd83b98a	-0.06431873
75	0x3b30cab9	0.00269763
76	0x3c3aecfe	0.011409042
77	0xbcc5a06c	-0.024124347
78	0x3d5eb63b	0.054373007
79	0x3d08e8b4	0.033425048
80	0x3d256317	0.040377703
81	0xbda8f3ec	-0.082496494
82	0xbd2cd224	-0.042192593
83	0xbdab47e6	-0.08363323
84	0x3d7d597a	0.06185291
85	0xbd8a4c3c	-0.06752822
86	0xbd029c69	-0.031887446
87	0x3c9b15e1	0.018931331
88	0xbd4f34ee	-0.050587587
89	0xbdac63df	-0.084174864
90	0xbd25a5cc	-0.04044132
91	0xbdc1384d	-0.09434567
92	0xba8d5bb8	-0.0010784781
93	0xbd8e9cf7	-0.069635324
94	0x3d8b0a97	0.06789129
95	0x3bf05193	0.007333943
96	0xba44f478	-0.00075132353
97	0xbce6ad6a	-0.028158862
98	0xbd5db327	-0.05412593
99	0x3d3bf875	0.045891244
100	0xbceab623	-0.028651303
101	0xbd7c52ad	-0.061602283
102	0xbcb564ab	-0.022142729
103	0xbd141cb5	-0.03616019
104	0x3bd88959	0.00660817
105	0x3da2493b	0.07924124
106	0xbd87047e	-0.06592654
107	0x3d390642	0.045171984
108	0x3d1d8b13	0.03846271
109	0x3d9a01d9	0.07519884
110	0xbc80e669	-0.015734868
111	0xbc8f38fb	-0.017483225
112	0xbcc2ec58	-0.023794338
113	0x3d3ec52b	0.046574753
114	0x3d75f3b9	0.060046885
115	0x3d30e469	0.04318658
116	0xbd725220	-0.05916035
117	0xbd2cc585	-0.042180557
118	0xbd7c8707	-0.06165221
119	0xbd8bf026	-0.06832914
120	0x3d7f4b68	0.062327772
121	0xbda51aed	-0.08061776
122	0xbdb91039	-0.09036297
123	0xbd9ab06f	-0.07553183
124	0xbba98434	-0.0051732305
125	0x3d0e7908	0.034783393
126	0xbca9736b	-0.020684918
127	0xbcfa590a	-0.030560035
128	0x3d609bd0	0.054836094
129	0xbd22f16f	-0.03978103
130	0x3cd86f2a	0.026420195
131	0xbd0583f6	-0.03259655
132	0x3dadb11e	0.08481048
133	0x3da9ca4d	0.08290539
134	0xbc9796e7	-0.018504573
135	0xbd9ae58f	-0.07563316
136	0xbd84087e	-0.06446932
137	0x3daebb71	0.08531845
138	0xbd8a5956	-0.06755321
139	0xbd294f1b	-0.041335206
140	0xbc8003ba	-0.015626777
141	0x3c7c52b1	0.015400575
142	0xbda1ac86	-0.07894234
143	0xbda72a75	-0.08162395
144	0x3b86a0d3	0.004108527
145	0x3b842e27	0.004033822
146	0x3d96c34f	0.07361471
147	0x3d68558f	0.05672222
148	0xbd5be0bd	-0.053681124
149	0x3cbbd315	0.0229278
150	0xbc84f8ce	-0.01623192
151	0xbcb42a63	-0.021992868
152	0x3c99124a	0.018685479
153	0x3d45ceb3	0.048292827
154	0xbc305842	-0.01076323
155	0x3c7b5c38	0.015341811
156	0x3bbef0f7	0.005827065
157	0x3d306d76	0.04307314
158	0x3d16cc27	0.03681579
159	0xbd65f3e9	-0.056140814
160	0xbd89694b	-0.06709536
161	0x3d89dc0c	0.06731424
162	0x3ca0476b	0.019565305
163	0x3d8d7d5f	0.06908678
164	0x3d6ec1d0	0.058290303
165	0x3cd35616	0.025797885
166	0xbd84d991	-0.0648681
167	0x3d40bdbc	0.047055945
168	0x3d78241c	0.06058131
169	0x3cde2dd0	0.027121454
170	0xbda2018d	-0.07910452
171	0xbd49078d	-0.049079467
172	0x3d37d800	0.044883728
173	0x3cbbfcd3	0.022947704
174	0xbcab6fee	-0.020927396
175	0x3a3fc00f	0.0007314691
176	0xbdadc66b	-0.08485111
177	0x3db3c37e	0.087775216
178	0xbd2fdcc2	-0.04293514
179	0xbdab36fc	-0.08360097
180	0xbd9cecb0	-0.07662332
181	0x3c360d5d	0.0111115845
182	0xbce2ea80	-0.027699709
183	0x3aa862a5	0.0012846781
184	0x3b2488f0	0.0025106035
185	0xbcc51de7	-0.02406211
186	0xbd998c7e	-0.074975
187	0xbda938b3	-0.08262768
188	0xbd959268	-0.073033154
189	0x3da90179	0.08252234
190	0xbd8d13a3	-0.06888511
191	0xbd94252f	-0.07233655
192	0xbd86db8d	-0.06584845
193	0x3d80a9e1	0.06282402
194	0x3db4af0c	0.0882245
195	0x3c9dca3f	0.019261478
196	0xbc186a32	-0.009302663
197	0xbd4dc17a	-0.05023334
198	0xbd1ce446	-0.038303636
199	0x3c4ddfe5	0.012565588
200	0xbccc74cb	-0.024958035
201	0xbd33a0bc	-0.04385446
202	0x3d736366	0.059420966
203	0x3c0790e3	0.00827429
204	0xbc8b58a1	-0.017010035
205	0xbda9cb44	-0.08290723
206	0xbd64a13a	-0.05581782
207	0xbcf2f42f	-0.029657451
208	0x3c1eb6cc	0.009687137
209	0x3cf71505	0.03016139
210	0xbda5537c	-0.08072564
211	0xbc90a5c4	-0.017657168
212	0xbca9dc97	-0.020735068
213	0x3d88569e	0.06657146
214	0x3d5ced2f	0.053937133
215	0x3d914945	0.07094053
216	0xba554c33	-0.000813666
217	0x3d8857df	0.06657385
218	0xbc094dd6	-0.008380374
219	0x3da77077	0.08175748
220	0xbda0836f	-0.07837569
221	0xbd4c8f39	-0.049941275
222	0x3d8426fa	0.06452747
223	0xbcaf69a2	-0.021412674
224	0xbd94c746	-0.07264571
225	0xbcea0851	-0.028568419
226	0xbb2bce65	-0.002621555
227	0x3d9c477b	0.07630821
228	0x3d7abe39	0.061216567
229	0x3d80cdc2	0.06289245
230	0xbb1457e0	-0.0022635385
231	0xba3ea537	-0.0007272544
232	0x3d4c8301	0.049929623
233	0xbd9eb199	-0.07748718
234	0xbd79afe1	-0.060958747
235	0x3d09ac55	0.033611614
236	0x3c4eb9ba	0.012617523
237	0x3da9af41	0.0828538
238	0xbcb9aa0f	-0.022664098
239	0xbd9526d6	-0.07282798
240	0x3c37a7f9	0.011209481
241	0x3d61f276	0.05516287
242	0x3ce40f66	0.027839374
243	0xbcd4cb16	-0.025975745
244	0x3d83e500	0.06440163
245	0xbc1adb74	-0.009451736
246	0xbd94e29d	-0.072697856
247	0x3d23bf00	0.039977074
248	0xbd9f620e	-0.07782374
249	0xbd4d7418	-0.050159544
250	0x3d781ac6	0.06057241
251	0x3db4a2e2	0.0882013
252	0xbcc407c4	-0.023929484
253	0xb7d81c09	-2.5762261e-05
254	0xbd447336	-0.047961436
255	0xbd35e3cf	-0.04440671

value_stream.0.bias f4 [64]
0	0xbc52f92c	-0.01287679
1	0xbda008ac	-0.07814154
2	0x3ee37b42	0.44429976
3	0x3ef0e1f4	0.4704739
4	0x3ec1edab	0.3787664
5	0x3ca0e70b	0.01964142
6	0x3ebc4e55	0.36778513
7	0x3d46a826	0.048500203
8	0x3ecbac29	0.39779785
9	0xbd78ad95	-0.060712416
10	0x3c801648	0.015635625
11	0xbc27b8cd	-0.010236931
12	0x3c87a9b5	0.016560415
13	0x3edc0299	0.42970732
14	0x3d5ff767	0.0546793
15	0xbd8391d8	-0.06424302
16	0x3cffdb93	0.03123263
17	0x3aab27fe	0.0013058183
18	0x3da27379	0.07932181
19	0x3d7b8351	0.06140453
20	0x3d0a9e90	0.033842623
21	0xbc4f6928	-0.012659349
22	0xbd09d634	-0.033651546
23	0x3ee2851b	0.44242176
24	0x3efd3374	0.49453318
25	0x3c015e9d	0.007896093
26	0x3d5fe6c6	0.054663442
27	0xbc9d6c58	-0.019216701
28	0xbd2359e2	-0.03988064
29	0xbd23feaf	-0.040037807
30	0x3efd191d	0.49433222
31	0x3ecd9a92	0.4015699
32	0x3ef0c1a4	0.47022736
33	0x3ee7bab8	0.45259643
34	0xbdda572c	-0.10661158
35	0x3ed7d707	0.4215624
36	0x3c677da5	0.014129077
37	0xbde07807	-0.109603934
38	0xbbc82424	-0.006107824
39	0xbc350cc9	-0.0110504115
40	0x3ee64ff2	0.44982868
41	0xbd7de812	-0.061988898
42	0xbd9ee472	-0.07758416
43	0xbc28bc19	-0.010298752
44	0x3efa25d7	0.48856995
45	0x3ed889f0	0.42292738
46	0xbc8a52e9	-0.016885238
47	0xbdb8db92	-0.09026255
48	0xbe07d599	-0.13265075
49	0x3d2458a6	0.040123604
50	0x3eb0938a	0.34487563
51	0xbe00a309	-0.12562193
52	0xbe795181	-0.24347498
53	0xbdb73ebe	-0.08947514
54	0x3effd5ca	0.49967796
55	0x3c49553c	0.012288388
56	0xbd15c06f	-0.036560472
57	0x3ec6a419	0.38797072
58	0x3d51e767	0.051246073
59	0xbd4527bc	-0.048133597
60	0x3eeb1cad	0.45920315
61	0xbcee0862	-0.029056732
62	0x3f0501b4	0.51955724
63	0x3ec8535d	0.391261

value_stream.2.weight f4 [1, 64]
0	0xbdcf9fb5	-0.101378836
1	0xbdb565e6	-0.08857326
2	0x3e4e8d42	0.20171073
3	0x3e34d5ef	0.17659734
4	0x3e9dcd7f	0.30820844
5	0xbc008d57	-0.007846198
6	0x3e7654fd	0.24055858
7	0xbd87758d	-0.06614218
8	0x3e474c29	0.19462647
9	0xbd058ea8	-0.03260675
10	0xbde2318b	-0.11044606
11	0xbdbbcc3c	-0.09169814
12	0xbdd24e32	-0.10268821
13	0x3e409baa	0.18809381
14	0xbde4386d	-0.11143575
15	0xbe419a26	-0.18906459
16	0xbddbf6f8	-0.10740465
17	0xbdc0e8b0	-0.094193816
18	0xbda1db4c	-0.07903156
19	0xbdb595e0	-0.08866477
20	0xbd18f259	-0.037340496
21	0xbde80bb4	-0.11330357
22	0x3ce519b2	0.027966354
23	0x3e8a4d6e	0.270122
24	0x3e70be36	0.2351006
25	0xbc0a95f4	-0.008458603
26	0xbc7ca368	-0.015419818
27	0xbdc7044d	-0.09717617
28	0xbc23f02b	-0.010005991
29	0xbdc6acdd	-0.0970094
30	0x3e84a436	0.25906533
31	0x3e6af5a8	0.22945273
32	0x3e8bf2c6	0.2733366
33	0x3e4eb587	0.20186435
34	0xbc31ba58	-0.0108476505
35	0x3e499081	0.1968403
36	0xbdc66bf2	-0.09688558
37	0xbd88a45e	-0.066719756
38	0x3d409f4b	0.047026914
39	0xbc44b0fd	-0.012005088
40	0x3e7c971a	0.24667016
41	0x3bf33ff5	0.0074233958
42	0x3cba7ccf	0.022764592
43	0x3c283d9b	0.010268594
44	0x3e913a32	0.28364712
45	0x3e37f1a7	0.17963277
46	0x3db08028	0.08618194
47	0x3d91b8f9	0.07115359
48	0xbe2d8685	-0.16945846
49	0xbcce93ff	-0.025217054
50	0x3e898ee3	0.26866826
51	0xbe44e9b4	-0.19229776
52	0xbd84ff5b	-0.06494018
53	0xbdf99124	-0.121858865
54	0x3e97a773	0.2961994
55	0xbd02136c	-0.031756803
56	0xbd26c3f2	-0.04071421
57	0x3e82c072	0.2553745
58	0xbd33ba4f	-0.04387885
59	0xbdd1c306	-0.10242276
60	0x3e9688c2	0.29401213
61	0xbdd26902	-0.10273935
62	0x3e51fc65	0.20506437
63	0x3e99ff0e	0.30077404

advantage_stream.0.weight f4 [64, 128]
0	0x3d856188	0.06512743
1	0xbdba36be	-0.090924725
2	0xbcd8faa0	-0.026486695
3	0x3cbba203	0.022904402
4	0xbc3524fe	-0.011056183
5	0xbc46d304	-0.012135271
6	0xbd631a18	-0.055444807
7	0xbd20486e	-0.039131574
8	0x3d49227b	0.04910515
9	0x3d873ae9	0.06603033
10	0xbdcde7e5	-0.10053996
11	0xba03962c	-0.0005019631
12	0x3ce82a54	0.028340496
13	0x3c54598b	0.012960802
14	0xbd9e2e86	-0.077237174
15	0x3ca81c32	0.020521257
16	0x3d22dd56	0.039761864
17	0xbd0f598e	-0.034997515
18	0xbdb4eecf	-0.088346116
19	0x3d35e519	0.044407938
20	0x3d0928a6	0.03348603
21	0xbc2fa6ec	-0.01072095
22	0xbcc290fc	-0.023750775
23	0xbc915c50	-0.017744213
24	0xbd90b132	-0.07065047
25	0x3d420e3c	0.047376856
26	0x3d293070	0.04130596
27	0xbd9c16c6	-0.07621531
28	0x3d05832c	0.0325958
29	0xbcf5e283	-0.030015236
30	0xbc415d93	-0.011802095
31	0x3cc110f9	0.023567664
32	0x3c58e6e0	0.013238639
33	0x3d25ad36	0.04044839
34	0xbd873a13	-0.06602874
35	0xbdae85f0	-0.0852164
36	0xbd48749d	-0.048939336
37	0x3ceff4eb	0.02929159
38	0xbd49185f	-0.049095508
39	0x3c8c7c9d	0.017149264
40	0x3c0fadc8	0.00876946
41	0x3d7640c7	0.06012037
42	0xbca59c39	-0.020216094
43	0x3d20a7ca	0.039222516
44	0x3d044999	0.03229675
45	0x3d21a39f	0.03946268
46	0x3d43a0ad	0.047760654
47	0xbdb90a19	-0.09035129
48	0xbc1375d6	-0.009000262
49	0x3da23e9f	0.079221
50	0xbdab9ec6	-0.08379893
51	0xbd12a6da	-0.035803653
52	0x3d4115bf	0.04713988
53	0x3d9e4fe8	0.07730085
54	0xbcb4ceb7	-0.022071226
55	0x3d82740d	0.06369791
56	0xbd5a8ab5	-0.053354938
57	0x3c598660	0.013276666
58	0x3d185967	0.037194636
59	0x3d69c5ea	0.05707351
60	0x3d8c9a54	0.06865373
61	0xbda41c69	-0.08013231
62	0xbcec162c	-0.028819166
63	0x3d00184c	0.03127317
64	0x3b85ed7d	0.0040871487
65	0xbd1e0d93	-0.038587164
66	0x3dacd9e7	0.08439999
67	0x3b629b5f	0.0034577472
68	0xbcf3b720	-0.029750407
69	0x3ca21378	0.019784674
70	0xbc93e03d	-0.018051261
71	0x3d1ad226	0.03779807
72	0x3cbf30d9	0.023338722
73	0xbd0ed9f7	-0.034875836
74	0x3d93886d	0.072037555
75	0x3d0b9445	0.034076948
76	0xbda254cf	-0.07926332
77	0x3d95eceb	0.07320579
78	0xbd867c07	-0.06566625
79	0xbcee06b3	-0.029055929
80	0x3d6d1fc4	0.057891622
81	0x3d0ef45b	0.034901004
82	0xbd2928de	-0.04129874
83	0xbd1a861c	-0.037725553
84	0x3b7bef6d	0.003844227
85	0x3d45a311	0.048251215
86	0x3d549f53	0.051909756
87	0xbc8ff106	-0.017570984
88	0xbd81d245	-0.06338934
89	0xbd33c35e	-0.04388749
90	0x3cffd611	0.031230005
91	0x3d07d726	0.033164166
92	0xbd83ac52	-0.06429352
93	0x3d3b5f1e	0.045745008
94	0xbcaba1d4	-0.02095119
95	0xbda4c50c	-0.08045396
96	0xbd9b7e58	-0.075924575
97	0x3d362659	0.044470165
98	0xbd6c5c3e	-0.057705157
99	0x3d20ecf4	0.039288476
100	0xbdc368a0	-0.0954144
101	0xbd962411	-0.07331098
102	0xbd988465	-0.07447127
103	0xbcd2f0e0	-0.025749624
104	0xbc21798b	-0.009855638
105	0xbd8e2c30	-0.06942022
106	0x3c186565	0.009301518
107	0xbcccbedb	-0.02499335
108	0x3d7b3bfe	0.06133651
109	0xbd3b2edc	-0.045698985
110	0xbd540c40	-0.051769495
111	0xbb5fa33c	-0.0034124395
112	0x3cf4fc37	0.029905422
113	0x3d3a54c0	0.04549098
114	0x3cb0932d	0.021554554
115	0x3cf3aadb	0.029744556
116	0xbdaa488f	-0.08314621
117	0x3da7c1b4	0.08191243
118	0xbdc3ce52	-0.09560837
119	0xbcbad85e	-0.02280825
120	0xbd83e236	-0.06439631
121	0xbc56d033	-0.013111162
122	0xbcc60a25	-0.02417476
123	0x3d0f7e0f	0.03503233
124	0xbdd6a8d0	-0.10481417
125	0x3d3bff3f	0.04589772
126	0x3d6465fc	0.055761322
127	0xbd28a55d	-0.041173328
128	0xbe9ed408	-0.31021142
129	0xbe5865e9	-0.21132626
130	0x3cde172e	0.027110662
131	0xbb00cb31	-0.0019652362
132	0xbd3e5d5f	-0.046475764
133	0xbd9c0ce6	-0.07619648
134	0xbf890662	-1.0705073
135	0x3e1d7332	0.15375975
136	0xbd85a3ba	-0.06525369
137	0x3ed59615	0.41716066
138	0xbe451286	-0.19245347
139	0xbdc7f6f3	-0.09763899
140	0xbd8be683	-0.06831076
141	0x3df58647	0.11988502
142	0xbd4807ff	-0.04883575
143	0xbf14ccac	-0.58124804
144	0x3f1ab74e	0.6043595
145	0x3dfcad5c	0.12337753
146	0xbfb5919f	-1.4185065
147	0xbf4b668d	-0.79453355
148	0xbe965472	-0.29361302
149	0xbd1700fb	-0.03686617
150	0x3e5a7ad7	0.21335922
151	0x39851189	0.00025380802
152	0xbeb86844	-0.36017048
153	0x3e16c616	0.14724001
154	0xbbd45c74	-0.006480748
155	0x3e98ac61	0.29819015
156	0xbcdc361d	-0.026881272
157	0x3d5ab82d	0.0533983
158	0xbf2ece4b	-0.6828353
159	0x3eeb0823	0.45904645
160	0x3f302b6b	0.6881625
161	0xbc991977	-0.0186889
162	0x3d0020ff	0.031281468
163	0xbd1d4bb8	-0.03840229
164	0xbe1e2223	-0.1544271
165	0xbd4c4af1	-0.049876157
166	0xbf32bede	-0.6982249
167	0x3d7bab6d	0.06144278
168	0xc0412e06	-3.018434
169	0xbf91c193	-1.1387199
170	0xbe97229c	-0.29518592
171	0x3f0ada07	0.54238933
172	0xbdac6875	-0.08418361
173	0xbe28b49a	-0.16475144
174	0xbd576235	-0.052583892
175	0xbcb6b42d	-0.022302711
176	0xbd2db0da	-0.042404987
177	0x3c1bf242	0.009518208
178	0xbfd3bce7	-1.6542023
179	0xbd3c2b3a	-0.04593966
180	0xc01b456b	-2.426112
181	0xbc1cfe8d	-0.009582174
182	0xbc77919c	-0.0151104
183	0x3eacbc92	0.33737618
184	0xbc36b5ac	-0.011151712
185	0x3e8f6739	0.2800844
186	0x3e36fbbd	0.17869468
187	0x3de5d6e3	0.11222627
188	0x3ce329bb	0.02772986
189	0xbe3eab78	-0.18620098
190	0x3d689a23	0.05678762
191	0x3ccd9337	0.025094612
192	0x3e95316e	0.29139274
193	0xbe610f69	-0.21978535
194	0xbbbe72dd	-0.0058120326
195	0x3e2d259d	0.1690888
196	0xbd57b0d8	-0.052658886
197	0xbfba9bda	-1.4578812
198	0xbcc6b4f5	-0.024256209
199	0x3ef220f8	0.47290778
200	0xbbbed090	-0.0058232024
201	0xba36a529	-0.000696736
202	0xbf61b7f8	-0.8817134
203	0xbda26e88	-0.079312384
204	0xbe14d698	-0.14534986
205	0x3d968414	0.07349411
206	0x3d4bd1eb	0.04976074
207	0xbd6a0c30	-0.05714053
208	0xbef6785b	-0.481387
209	0xbd69b055	-0.05705293
210	0x3e454012	0.19262722
211	0x3eb61f15	0.3557059
212	0xbfc53bab	-1.5408834
213	0xbe9db401	-0.30801395
214	0xbe9c57cc	-0.30535734
215	0xbda50bcd	-0.080588914
216	0xbec268a1	-0.3797045
217	0xbe8e12e6	-0.27748793
218	0xbdff3deb	-0.12462982
219	0x3d5c199a	0.053735353
220	0xbe8e1e27	-0.2775738
221	0x3cafc222	0.021454874
222	0xc014568a	-2.317782
223	0x3db6a998	0.08919066
224	0xbcae6d05	-0.021292219
225	0xbc95242b	-0.018205723
226	0x3d525469	0.05135003
227	0x3cc031ed	0.023461306
228	0xbd39ca70	-0.045359075
229	0x3ebc1b33	0.367395
230	0x3d992190	0.07477105
231	0x3d666798	0.05625114
232	0x3de5db10	0.112234235
233	0xbdaa8734	-0.08326569
234	0x3dd15064	0.102204114
235	0x3d8b8580	0.068125725
236	0xbeb05438	-0.34439254
237	0xbcda92b3	-0.02668128
238	0x3ed20562	0.41019732
239	0xbc7657e2	-0.015035601
240	0x3dafdeaf	0.085873954
241	0x3dcd065f	0.10010981
242	0x3ee2ef16	0.44323033
243	0xbc0f2c52	-0.008738594
244	0x3d433a41	0.047662977
245	0xbf316e91	-0.69309336
246	0x3c8363c6	0.016038787
247	0x3f2e77fc	0.6815183
248	0xbdc7aa8a	-0.097493246
249	0xbce9efb1	-0.028556677
250	0x3d33c7a7	0.043891575
251	0x3cb41e79	0.021987187
252	0xbe9824cd	-0.29715577
253	0xbe59198a	-0.21201149
254	0x3eb84424	0.35989487
255	0xbd4d8cb3	-0.05018301

advantage_stream.0.bias f4 [64]
0	0x3ce6a82d	0.028156364
1	0x3e6841cb	0.22681348
2	0x3c48a6cf	0.0122468015
3	0x3e39cb90	0.18144059
4	0x3d77729b	0.06041203
5	0x3dd4c9e7	0.10390072
6	0xbd5c5fdb	-0.053802352
7	0xbd0031de	-0.031297557
8	0x3ccf2ce6	0.025289964
9	0x3e2123b8	0.15736282
10	0xbdac68d0	-0.08418429
11	0xbdc1b82d	-0.09458957
12	0x3dc86f84	0.09786895
13	0x3e6f48da	0.23367634
14	0x3d355b02	0.044276245
15	0x3dc88ccf	0.09792482
16	0x3d0395a1	0.03212512
17	0x3cb294ed	0.021799529
18	0x3d861a99	0.06548042
19	0x3d866690	0.06562531
20	0x3d09d19e	0.033647172
21	0xbcb96870	-0.022632807
22	0xbd503dd8	-0.05084023
23	0xbd676d99	-0.056501005
24	0xbbb7b899	-0.0056067226
25	0xbcab7831	-0.020931335
26	0x3dbb6a52	0.09151138
27	0xbd7cf0f1	-0.061753217
28	0xbda4e803	-0.08052065
29	0xbd892094	-0.06695667
30	0xbd9fb157	-0.07797497
31	0xbd67ff54	-0.056639984
32	0x3d47d818	0.048790067
33	0x3a6bc215	0.0008993459
34	0xbd3ffef9	-0.04687402
35	0x3e2eb9b6	0.1706303
36	0xbc83cfd2	-0.016090307
37	0x3de2bd59	0.110712714
38	0xbdee970e	-0.11649905
39	0xbd0be4ee	-0.03415387
40	0xbbb9ffa9	-0.005676229
41	0x3e57cf9e	0.21075293
42	0x3db4a63c	0.08820769
43	0x3c9d91f9	0.019234644
44	0x3a68c79b	0.0008879841
45	0x3e4761c5	0.1947089
46	0xbd945463	-0.07242658
47	0xbdc7a127	-0.09747534
48	0x3e30e735	0.17275698
49	0xbd4db19c	-0.05021821
50	0xbd87efeb	-0.066375576
51	0xbd739eda	-0.059477665
52	0x3e0d15ff	0.13777922
53	0x3d0b0bd1	0.033946816
54	0x3d97fddc	0.07421467
55	0xbd165650	-0.036703408
56	0x3da91146	0.08255248
57	0x3e907d44	0.2822057
58	0xbccde36b	-0.025132855
59	0xbdfd7694	-0.123761326
60	0x3cf96245	0.030442366
61	0x3d84eacc	0.064900964
62	0x3c64155e	0.01392111
63	0xbd7d590f	-0.06185251

advantage_stream.2.weight f4 [5, 64]
0	0xbd0d405d	-0.03448521
1	0xbec56036	-0.38549966
2	0x3f34fd81	0.70699316
3	0x3e83cd0c	0.25742376
4	0x3d629420	0.055317044
5	0xbe28fe25	-0.16503198
6	0xbda2632b	-0.07929071
7	0xbcd1bc99	-0.025602626
8	0xbdceead5	-0.101033844
9	0x3ddc02b3	0.10742702
10	0xbdd0b773	-0.1019124
11	0x3d75f6c8	0.060049802
12	0x3ccf1d2b	0.025282463
13	0x3e7735af	0.24141572
14	0xbc8fc6c7	-0.01755084
15	0x3ea22578	0.3166921
16	0xbaf8a425	-0.0018969817
17	0x3e931047	0.28723356
18	0xbdb1ecff	-0.086877815
19	0x3f089d8d	0.53365403
20	0x3dd45f06	0.10369687
21	0xbdd0a0ef	-0.10186946
22	0x3d42469d	0.047430623
23	0xbda22883	-0.07917883
24	0x3de134c9	0.10996396
25	0x3e516917	0.20450245
26	0x3f25c535	0.6475404
27	0xbcc88475	-0.024477223
28	0xbcfc341c	-0.030786566
29	0xbc37a35f	-0.011208384
30	0xbdc0ab55	-0.09407679
31	0x3dc35a13	0.09538665
32	0xbd9e0afc	-0.07716939
33	0x3dc6d509	0.09708602
34	0x3cad0848	0.021122113
35	0x3e9dff6d	0.30858937
36	0xbc1a5520	-0.009419709
37	0xbedd3db8	-0.4321115
38	0xbe851acb	-0.25997004
39	0x3d24d026	0.04023757
40	0xbd1f605a	-0.038910247
41	0xbe82530a	-0.2545398
42	0x3d956775	0.072951235
43	0x3d950799	0.0727684
44	0x3dc3a65b	0.09553214
45	0xbef12110	-0.47095537
46	0xbc889112	-0.016670737
47	0x3d6a501f	0.057205316
48	0xbeca68ab	-0.3953298
49	0x3d9c373d	0.07627723
50	0xbccff60e	-0.025385883
51	0x3d2b4c16	0.041820608
52	0xbe02c7b9	-0.127715
53	0x3c294e38	0.01033359
54	0xbe804742	-0.25054365
55	0xbda96987	-0.08272081
56	0xbe772180	-0.24133873
57	0x3e9f6712	0.31133324
58	0x3d900c58	0.070336044
59	0xbd484f83	-0.048903953
60	0xbd790a39	-0.060800765
61	0xbdbde1e9	-0.092716046
62	0x3cfec659	0.031100439
63	0xbd77a30e	-0.060458235
64	0x3d745a0c	0.059656188
65	0xbdc4ea6c	-0.09615025
66	0xbddc4441	-0.10755206
67	0x3ddbd225	0.10733441
68	0x3d9e2473	0.07721796
69	0x3ed5e87c	0.41778934
70	0xbdb51749	-0.08842332
71	0xbdd05548	-0.10172516
72	0x3d11a0e0	0.035553813
73	0x3b710fd3	0.0036783114
74	0x3d1512df	0.03639495
75	0x3e0e85db	0.1391825
76	0xbf12e743	-0.5738413
77	0xbe8c9197	-0.27454826
78	0x3dc2217d	0.09479044
79	0x3d3d3ead	0.04620235
80	0x3dd8032f	0.10547482
81	0xbbcd4edf	-0.0062655057
82	0x3d8ba817	0.0681917
83	0xbe9d6c65	-0.3074676
84	0x3e189535	0.14900668
85	0xbccf85f7	-0.025332434
86	0xbbb42f15	-0.0054987767
87	0x3d57492c	0.052560017
88	0x3dc1e607	0.09467702
89	0x3cd48112	0.025940452
90	0xbee2b6c2	-0.44280058
91	0x3d8dff88	0.06933504
92	0xbd0f6e1f	-0.03501713
93	0xbd3c2fbc	-0.04594396
94	0x3dba6835	0.09101907
95	0x3d6d20bf	0.057892557
96	0xbd71d766	-0.05904331
97	0xbd80c882	-0.06288244
98	0x3dc49e24	0.096004754
99	0x3d014262	0.03155745
100	0x3dd83094	0.105561405
101	0x3ec343ac	0.38137567
102	0x3e825e15	0.25462404
103	0x3c78bf78	0.015182368
104	0x3dccf5f1	0.10007847
105	0xbd6c493c	-0.05768703
106	0xbf367628	-0.7127404
107	0x3b8cf059	0.0043011126
108	0x3d9bb79b	0.07603379
109	0x3efafbcd	0.49020234
110	0xbd260e19	-0.04054079
111	0xbdd8c533	-0.10584488
112	0xbe9b8c1c	-0.30380332
113	0x3d66ce47	0.056349065
114	0x3db15076	0.08657925
115	0xbe0e47c3	-0.13894562
116	0xbe0783cb	-0.13233869
117	0x3db1199d	0.086474635
118	0xbea88b82	-0.32918936
119	0x3ca36990	0.019947797
120	0x3d0f8b1a	0.035044767
121	0xbe27725f	-0.16352223
122	0x3d0450c3	0.032303583
123	0x3d8e15f5	0.06937782
124	0xbc4b5cd1	-0.012412266
125	0x3d7ead27	0.06217685
126	0xbe4e7719	-0.2016262
127	0xbb3eae44	-0.002909557
128	0x3a91d782	0.0011126848
129	0x3da6cdff	0.081447594
130	0xbd9b87b8	-0.07594246
131	0x3dfe58f6	0.12419312
132	0xbdd3a2e8	-0.10333806
133	0x3e2cf94d	0.16891976
134	0xbdde00a9	-0.1083997
135	0xbd147c91	-0.03625161
136	0x3bef2d34	0.00729909
137	0x3b807aac	0.0039208736
138	0x3b69dc3c	0.0035684248
139	0x3d314bc7	0.043285158
140	0xbe02d67d	-0.12777133
141	0x3e5bbf7c	0.21459764
142	0xbd18a84f	-0.037269887
143	0x3d9d7513	0.07688346
144	0x3bd4519d	0.0064794556
145	0xbeb515c3	-0.35368165
146	0x3d00c1a1	0.03143466
147	0x3edf9779	0.43670252
148	0x3d983955	0.0743281
149	0x3d3a0131	0.045411292
150	0x3d5627fc	0.052284226
151	0xb80ce026	-3.3587356e-05
152	0xbdbd019a	-0.09228821
153	0xbeaf5c44	-0.3425008
154	0x3d98486f	0.074356906
155	0xbe0d0532	-0.13771513
156	0xbd0dac56	-0.03458818
157	0xbdb95ebf	-0.090512745
158	0x3d232c5c	0.039837226
159	0xbd9dc9c8	-0.07704502
160	0xbdaea2bb	-0.08527132
161	0xbd6179ed	-0.055047918
162	0xbdb5a284	-0.08868888
163	0xbed7e7e9	-0.4216912
164	0xbbea3ea0	-0.0071485788
165	0xbdb84bf5	-0.08998863
166	0xbde7af99	-0.113127895
167	0x3db5c46f	0.08875357
168	0x3d49db3b	0.04928134
169	0x3e2667c2	0.16250518
170	0xbdbfbd9a	-0.093623355
171	0x3d16772f	0.036734756
172	0xbd69ade2	-0.057050593
173	0x3dce898c	0.10084829
174	0xbd93ce13	-0.0721704
175	0x3d993a4e	0.07481824
176	0x3ddaa974	0.10676852
177	0xbd2b1485	-0.041767616
178	0xbca41c32	-0.020032976
179	0xbdc22204	-0.09479144
180	0x3e11f29a	0.14252701
181	0xbde52f52	-0.11190666
182	0xbe2bdd5e	-0.16783664
183	0x3d15debf	0.03658938
184	0x3e35c63c	0.17751402
185	0x3e9037b2	0.28167492
186	0xbdde231b	-0.108465396
187	0xbdd31681	-0.10307027
188	0xbda0979a	-0.07841416
189	0xbd61e4b6	-0.055149756
190	0xbd4920b6	-0.04910346
191	0xbd98ee8a	-0.07467373
192	0x3db0ec95	0.086388744
193	0xbec4204e	-0.38305897
194	0xbe26ee86	-0.16301927
195	0xbedc3a21	-0.430131
196	0x3d947c8e	0.072503194
197	0xbf07775d	-0.5291651
198	0x3d353b58	0.044246048
199	0xbdc7f930	-0.097643256
200	0x3d708813	0.05872352
201	0xbf1f725e	-0.62283885
202	0x3d666ad0	0.056254208
203	0x3d3fef71	0.04685921
204	0x3e234bff	0.15946959
205	0x3e34d93b	0.17660992
206	0x3d96c1d5	0.07361189
207	0xbef97120	-0.4871912
208	0x3df036f6	0.11729233
209	0x3e0ebc1e	0.13938949
210	0x3c031eac	0.008002918
211	0xbee88975	-0.4541737
212	0x3e813098	0.25232387
213	0xbde01344	-0.109411746
214	0x3d702c99	0.05863628
215	0x3d048f39	0.03236315
216	0xbd5e00b0	-0.054199874
217	0x3e1cf9d0	0.15329671
218	0x3defd5de	0.11710714
219	0x3d55d5b2	0.05220575
220	0x3ddc638e	0.10761176
221	0xbdf835f6	-0.12119667
222	0xbde17eda	-0.11010523
223	0xbcb7aeea	-0.022422273
224	0xbda89e78	-0.082333505
225	0xbdcb4a36	-0.09926264
226	0x3d812e42	0.06307651
227	0x3defca12	0.11708464
228	0x3da53a68	0.08067781
229	0x3d242e7e	0.0400834
230	0x3deb8819	0.11500568
231	0xbd992a8b	-0.074788176
232	0x3be0d99f	0.00686188
233	0xbe8a33a7	-0.26992533
234	0x3e80fd15	0.25193086
235	0x3d62c64d	0.055364896
236	0xbce757cf	-0.028240113
237	0xbe323448	-0.17402756
238	0xbd5c0985	-0.053720016
239	0xbdeee3fd	-0.11664579
240	0x3e5394c8	0.20662224
241	0xbd5f6da3	-0.054547917
242	0xbd3bff65	-0.04589786
243	0x3bc69fbb	0.006061522
244	0x3ec62a51	0.3870416
245	0x3b8ad4e4	0.0042368043
246	0x3e866986	0.26252383
247	0x3cb63ee7	0.022246791
248	0x3ae6f7d3	0.0017621465
249	0x3d252296	0.040316187
250	0x3d75fe1a	0.060056783
251	0x3d081767	0.033225443
252	0x3d4f8482	0.05066348
253	0xbdc330d1	-0.09530795
254	0xbd5452fa	-0.051836945
255	0x3e11cf71	0.14239289

advantage_stream.2.bias f4 [5]
0	0xbe8dac4b	-0.27670512
1	0x3db4ef1e	0.088346705
2	0x3e7a210f	0.24426673
3	0xbd1b7ab7	-0.037958827
4	0x3e4484c0	0.19191265
